weights/SPEAR/Cora/SPEAR_Cora_weights.pth (torch, 178455 bytes, 6 tensors)

layers.0.weight f4 [80, 80]
00000000: fc46 723d db11 98bd 293c 8abd 3e3b 6e3d
00000010: eb7d 70bc fe36 c93d bd11 843c be12 5dbc
00000020: 6ca9 003d 28be 09bd 972a 53bd 1e26 7ebc
00000030: 01f3 adbd 8e19 8c3c 312b 10bd 8f42 24bd
00000040: c953 873d 2516 eb3b 25a4 8f3b 4b20 f8bc
00000050: 0182 b5bd 502d a53d e0b5 3d3c 6217 40bd
00000060: aaae cbbd 0eca cbbd 5634 be3d 72cc 90bd
00000070: e338 713d e346 1ebd cede adbd 1011 743d
00000080: a148 c43c cdcd c73d 02e5 bebc b0c6 40bd
00000090: 080d adbc 023b a0bd 6a4f 33bd 7bb7 6e3d
000000a0: e4fe 05bd 509b 24bd 64df 0bbd 449d 793d
000000b0: 6714 5f3a 20c7 55bd 1bed 95bd 9fb7 ca3b
000000c0: 0613 7c3b 1f02 db3d ee7e 453d 543e 39bd
000000d0: 8f2b f5bd 9fba babb f56d bf3c f2ac 713d
000000e0: 2f2d a43d d0c3 31bd 5b4b 53bc 813a a7bd
000000f0: 2186 5cbd 9463 2d3d cf8d b8bd 6461 033d
00000100: 6516 80bd 71d8 d13c f046 dd3d ae77 aebc
00000110: 90fd 34bb 5526 923d 6b8d a0bb 864b 143d
00000120: 4cae ae3c 2441 22bd 49b9 97bd be8b afbd
00000130: 8196 303d 7a0f bb3d ccc3 953d 9b2d 5d3d
00000140: 6e2a b5bd 8c89 9d3d 4a77 a7bd 948f b2bc
00000150: 1ec8 22bd e721 98bd 9f4b a23d 0f7b b4bc
00000160: 8678 fc3c d318 823c 7dc9 e8bc 0bc4 a5bd
00000170: 7268 023d 03f3 83bd 082d 243d 7944 703d
00000180: dba3 5c3d ecea 96bd af0c b33c 8faf a7bd
00000190: 3c9a 5b3d 14b4 80bc 95cb 223b 2d1c bcbb
000001a0: bdeb 5dbd cf5f 8f3d aaa9 acbd cfaa e33d
000001b0: 22c6 a93d f9ac 203c 9bc6 c33d 0b78 cbbd
000001c0: 5007 21bb d9d6 d4bd fc94 763c 7e2a 1abc
000001d0: 9c7f 973d c52d 083d edaa babd 1ee0 3f3b
000001e0: 12bd ba3d f1d8 1f3d 91fb d73d d70a c53d
000001f0: 6317 663c 26dd b0bd 9cbd 433d a85b 063d
00000200: bf3e f3bc 4f9f d1bd 8ca7 10bd 1eb0 773d
00000210: 8cfa a2bd a3b4 823d b6e7 783c 320c febd
00000220: 3e7e 9a3d 31de 133e 9f69 83bd 3c49 883d
00000230: 1ef8 b93c 60b1 84bd 2b2f d1bc 043e 97bd
00000240: 8e7f 1fbd ba7b c7bd 04d4 f2bd 5efb ccbd
00000250: 0c85 e1bc cec7 8ebd 045d ca3d 905a 713c
00000260: 6eac 55bc 9296 67bd 21d2 61bd c536 84bd
00000270: 3922 52bd 2fe1 2fbd c011 bfbd 4361 0abd
00000280: 8e9f a63d 942e c63c 418d bebd a3a5 f43c
00000290: 77d0 fbbc bcaf 033e 8557 963d b965 cdbd
000002a0: f1fe 7bbd 8820 3cbd 8a4b 2cbd 7546 87bd
000002b0: f0a4 ac3d 9a13 173d aa91 00be 89cb b5bd
000002c0: bbde acbd 58dd 8ebd a29b 6bbd 02ed 2abd
000002d0: ff56 d5bd cf15 183c c3f2 8e3d 0ae5 b73d
000002e0: 8506 33bc 93e1 c2bc 47ec a0bd 476e 4fbd
000002f0: ad33 be3c 425e aebd 95c5 8fbc 3d9b 353d
00000300: 9646 713c 3a24 f7bd 9e5b 81bd 787b 853d
00000310: ccb6 9e3c 833a 70bc 2cbc a7bd 00ce 933d
00000320: 697e cb3d 651d afbc 123c 773a befd 46bd
00000330: 76a3 6ebd 98b4 ae3d d137 a63c a949 c1bd
00000340: 3d71 3c3d 893a 57bb 99b2 cf3d 1c9f 5fbd
00000350: 7395 5bbd d595 f13c 576e 70bd 4b85 b53c
00000360: 564d b83d 3176 3abc 1a8f b23d 810f cdbd
00000370: 3a75 25bd f3c9 0cbc ee0b d3bc 6b54 f03c
00000380: e79a f8bd 5ff1 30bd bd89 7c3d 7721 b0bd
00000390: 199d 843d d20d 9fbb 0dec 7bbb d5cf 84bd
000003a0: a38c 21bb ddf6 4fbd 5a17 62bc 6b89 acbc
000003b0: e62d a43d 51a3 d9bc 8800 4a3d cfed d93a
000003c0: cb54 553c 71bc ad3d 14b1 5bbd 51a8 62bd
000003d0: 269d 8cbd 9be1 8a3d f56b c23d 0c0d d53c
000003e0: 78d9 e8bc 2603 653c 0bf1 bbbd 500a eabc
000003f0: fd1d 8c3d 79c5 82bb 7143 843d 5680 94bc
0.059149727 -0.07425281 -0.06749756 0.058161967 -0.014678459 0.09824942 0.01612174 -0.013493238
0.031411573 -0.033628613 -0.05155429 -0.0155120175 -0.08493615 0.01710203 -0.03519744 -0.040102538
0.066077776 0.0071742707 0.004383581 -0.030288836 -0.08862687 0.08065283 0.011579007 -0.0468973
-0.09945424 -0.09950648 0.09287326 -0.07070245 0.058892142 -0.03864182 -0.08489762 0.059586585
0.023960413 0.0975605 -0.023302559 -0.047064483 -0.021124378 -0.07823755 -0.043776907 0.05828045
-0.032713786 -0.04018718 -0.03414859 0.060940996 0.0008509815 -0.052191854 -0.07320615 0.00618644
0.0038463487 0.10693764 0.048216753 -0.045225456 -0.11971199 -0.0056985165 0.023367861 0.059002824
0.080164306 -0.043399632 -0.012896384 -0.081654556 -0.053838853 0.042331293 -0.09011423 0.0320753
-0.062542714 0.025615903 0.10804546 -0.021297302 -0.0027616955 0.071362175 -0.004899671 0.036204837
0.021323346 -0.039612904 -0.07408387 -0.085715756 0.04311228 0.09133811 0.07312736 0.05399857
-0.088459834 0.076922506 -0.081770495 -0.021796979 -0.039741628 -0.07428341 0.0792458 -0.022031335
0.030819189 0.015880978 -0.02841639 -0.08094033 0.031837888 -0.06442835 0.040082008 0.05865905
0.053867202 -0.073690265 0.021856634 -0.08187782 0.053613886 -0.015710868 0.0024840583 -0.0057406635
-0.054179896 0.07000696 -0.08430798 0.111165635 0.08289744 0.009806865 0.09559365 -0.09935006
-0.002457101 -0.103925414 0.015050169 -0.009409545 0.073973864 0.033246774 -0.09114633 0.0029277871
0.091180936 0.03902525 0.10546029 0.09621208 0.014043662 -0.08635931 0.047788247 0.032802254
-0.029693006 -0.10235464 -0.035316035 0.060470693 -0.07957944 0.0638211 0.015191963 -0.1240467
0.0754361 0.14440228 -0.0641663 0.06654593 0.02270132 -0.06479144 -0.025535187 -0.073848754
-0.038940005 -0.09740396 -0.11856845 -0.10008882 -0.027529262 -0.069717035 0.098810226 0.014731064
-0.013041599 -0.05654008 -0.055132035 -0.06455759 -0.05130217 -0.04293936 -0.093295574 -0.033784162
0.081359014 0.024192132 -0.09304286 0.029864138 -0.030739052 0.12860006 0.07340912 -0.10029168
-0.061522428 -0.04592946 -0.042064227 -0.066052355 0.08429897 0.036883928 -0.12555566 -0.08876712
-0.0844092 -0.06975812 -0.05752147 -0.041729935 -0.10416984 0.009282543 0.06979897 0.089792326
-0.010926847 -0.023789203 -0.07857566 -0.050642278 0.023218 -0.08514072 -0.01755027 0.0443375
0.014726302 -0.120674565 -0.06316303 0.065176904 0.019374274 -0.014662388 -0.08190188 0.07217026
0.0993622 -0.021376321 0.00094312534 -0.04858183 -0.058261357 0.08530539 0.020290287 -0.09437878
0.04600643 -0.0032841286 0.10141487 -0.054595098 -0.053609323 0.02949039 -0.05869898 0.022158286
0.08999126 -0.011380718 0.08718701 -0.10012723 -0.040395 -0.00859307 -0.025762524 0.029337129
-0.1213892 -0.04319894 0.061654795 -0.08600133 0.064752765 -0.0048539424 -0.0038440258 -0.06484953
-0.0024650476 -0.050772537 -0.013799513 -0.02106162 0.08016567 -0.026567133 0.049316913 0.0016626659
0.0130207045 0.08483208 -0.05363567 -0.0553363 -0.06865911 0.06781312 0.094932474 0.026007198
-0.02842401 0.013977801 -0.09176835 -0.02856937 0.06841657 -0.0039908257 0.06458176 -0.018127602

layers.0.bias f4 [80]
00000000: d33c 7d3d 6ace 053e 1cd9 213d 17f3 c23d
00000010: c2a7 aeba 4ffb d93c c66d fb3d 09e6 ccbc
00000020: f690 933d bb31 203d ca55 ec3d 5c24 333c
00000030: 7f75 313d 925b aabd 43f5 1c3c aa4f 543d
00000040: cbbc bd3a 7c86 013e df54 853c 89df cf3d
00000050: 80cd 19bd dda6 7a3d 06c4 153d a0e2 ccbc
00000060: bf3f b5bd a2c5 9c3d 0f4c 8a3d c571 bcbd
00000070: f659 d239 1b87 813d 9ff5 a73d cd2f b23d
00000080: ff0e 653d 06ed f6bb 6c17 5d3d ca98 9c3d
00000090: 1f32 d23d c5f8 4ebd fb0a 18bd 8c64 88bd
000000a0: baa0 423b 49e8 513d 40c2 9d3d 7838 c43d
000000b0: 09bb ed3c c6c6 3f3d c992 80bc e876 5f3d
000000c0: 0875 4ebd 2919 b33d 1ba7 723d 53b8 9dbc
000000d0: 6137 863c 31ef 1e3b 1e91 9bbc aab7 34bd
000000e0: 985e af3d 5123 81bd 36cf b734 86e2 97ba
000000f0: f78e 3dbc ca60 04bd 3376 d13d 4af0 d5bc
00000100: fbc7 99bd 2b5c 1abd c5e4 a7bd e55a db3d
00000110: 9a5b b7bd 075d f4bc 55db 8c3d 3bfa 883b
00000120: 909f 4fbd 6b30 a0bd af02 78bd 9322 8bbd
00000130: 4393 bb3c db4a ea3c 8f2c 8a3c 7dd1 aebb
0.061825585 0.13067022 0.039513692 0.09519022 -0.0013325142 0.026609091 0.12276797 -0.025012033
0.072053835 0.039109927 0.115398005 0.010933962 0.043324944 -0.08318247 0.009579959 0.051833786
0.001447582 0.12648958 0.016275821 0.10150058 -0.037549496 0.06119429 0.036563896 -0.025010407
-0.08850049 0.07654883 0.06752788 -0.09201387 0.00040121347 0.063245974 0.082011454 0.087005235
0.055922505 -0.0075355796 0.053977415 0.0764633 0.10263466 -0.050530214 -0.037119847 -0.06659803
0.0029697851 0.051246915 0.07703066 0.09581083 0.02901985 0.046820424 -0.015694993 0.054556757
-0.05040458 0.08745033 0.059241395 -0.019252932 0.016383829 0.0024251456 -0.018990096 -0.04412047
0.08562964 -0.06305564 3.4237172e-07 -0.0011587895 -0.01156973 -0.032318868 0.10227623 -0.026115555
-0.07508846 -0.037685554 -0.08197931 0.10710696 -0.089530185 -0.029829515 0.06877772 0.0041802204
-0.05068928 -0.07821735 -0.060549434 -0.06793704 0.022897368 0.028600147 0.01686695 -0.0053350315

feat.weight f4 [30, 80]
00000000: dc0a 873d 5c30 75bd 7c50 4cbd bee7 b4bc
00000010: ae93 fdbc 6750 143b 1e8e fa3d b69c be3c
00000020: 1d42 afbc 081c fd3c 063a 293d fd57 bb3d
00000030: b884 303a 53f8 db3d d580 ca3d 6366 063e
00000040: ad3b 3a3d 46c3 c53d a21f 8e3d 89fa 133e
00000050: 8e6f 323d d930 1bbd 6f6b 153d 9960 503d
00000060: a783 e53c f4d4 59bc e42e ce3c 4e4b 82bd
00000070: 777d 49bc 3241 b53b 39f8 40bd 4440 e2bc
00000080: c14a da3d 2daa 4d3d 1fdf 2eb9 64d6 2abc
00000090: 31c0 febb 4e81 0c3e e6c0 8c3b 304a c43b
000000a0: 847b 223d 7a8a 1cbd c5d8 cebc f27a 393d
000000b0: cc4a bf3d 9b1f b9bc 4b09 a43b 3705 13bb
000000c0: 3055 c23d c78d 9e3d 40bf be3d c47f 0a3d
000000d0: bb4a 433c 4b96 12bd c15d 85b9 ce19 5cbd
000000e0: 89ae 183e 3dda f13b 1af6 aeb4 1027 3d3c
000000f0: 13dd 91bc a009 9e3d dd8f 0fbd e0a3 62bd
00000100: 9eee 74bd 5d4b 083e b8a2 7fbc 526d f63b
00000110: 9a2a c83d c889 2e3d bb57 813d 7c7b bc3c
00000120: b11a a83d 3d33 5f3d 75b4 d4bc dcd1 623d
00000130: d265 58bd ec1a 0e3e 0794 64ba 870e 2a3d
00000140: ce0c 933d 5d91 11be 1cf4 2b3d c417 583d
00000150: 1677 35bd 0528 393d 1b6c cfbd 6039 d4bc
00000160: 9e74 c33d 6eb8 e8bc 2f2c cdbd 993a 9b3d
00000170: 9bbe 8b3d 8b5d 823d bd6a 943c 0e6a df39
00000180: 61f1 6fbd dcb2 5cbd 227d 1e3d d83d 453d
00000190: 9afc 19bd 9749 5cbd 01a0 c1bc 6874 193d
000001a0: c9e0 21bd 1dd2 98bd fe61 473d 3f8b 8b3d
000001b0: 20ee 5dba 3833 4cbd fa1b cebd b8f4 cbbd
000001c0: 9280 d03b 1f1b 83bd 306b 5cbd efa8 d6bd
000001d0: 4768 93bd 5773 c4bd c98d b8bd 3c81 3a3d
000001e0: 7ef7 18bd 1b95 12bd 418f ca3d bee0 9cbc
000001f0: c006 2f3d 4f6a 073d 1e42 2d3c b008 813d
00000200: 8d00 b83c 2cf6 4ebd efcc 03be 11a2 2abd
00000210: 31c7 87bc 5051 25bd ae15 24bd 5dd0 3fbd
00000220: b2d0 27bc 4604 673d 98e1 803d c0e3 7cbc
00000230: f41c 4335 ef97 af3b 53fa d4bc a050 12bb
00000240: d3af 0abd ae85 323c dc9f babd 3c64 c4bd
00000250: 6c7b 9dbd 0cb1 07bc 85bb 4b3d b924 33bd
00000260: 33cc d13d d752 233d 95a8 bfb9 318d 7ab6
00000270: c2b2 cb3c fe23 163d c7ae ab3c 6a09 1b3d
00000280: 7ac6 aebd 2411 74bc 5204 d43d c82b 9f3d
00000290: 28e3 d23c 1d45 7d3d 293a a53d 0dc2 b03c
000002a0: 8051 abbd 331e 0a3d b30c 4cbd 8356 783c
000002b0: ae04 de3d b6f7 1e3d 9677 1e3d d226 923d
000002c0: a465 8b3d 08ea 97bd eb98 00bd e8f4 56bc
000002d0: ee93 a93c ef96 9e3d 9893 833d 9841 813d
000002e0: 0782 023c 925d c53d a0bc 823d 86a4 973d
000002f0: cdce b034 2c27 dcbb 4111 b53c 309a 87bd
00000300: 0435 123b b879 1bbd 1a9e 38b9 a2ab 413d
00000310: c949 8dbd f176 94bd c124 6f3a 0f94 513d
00000320: da7a 5d3d 0f6b 5e3d f27f 55bd 60f8 7cbd
00000330: c112 83bd 3478 fb3b f96a 3fbc d6f9 9c3c
00000340: 77a1 2f3d 7850 ca3d d368 b83d 5093 7bbd
00000350: ee86 773c f84e 7f3d fb26 41bd b723 3c3d
00000360: c601 ea3d 75bc 91bd 2a40 1e3c f857 a13b
00000370: f62c b3bc cb30 9ebd 5cf7 073e bf00 b2bc
00000380: b54c b1bd 3e6b d73d 6251 803c f5b3 a63d
00000390: 45d7 f53d 03ae f934 eb7c bcbd 63bc 1ebc
000003a0: 4b02 9b3d 5c00 8ebc 2eda 24bd 7a6e 72bd
000003b0: 6116 51bc 74bd 6d3d 7ce6 88bc 115a 283c
000003c0: d3c2 873d 353b e93d 6f0b abbd b8e9 7dbd
000003d0: 516b e5ba 616b 313d 325c d43d b270 b93d
000003e0: 20f2 8b3a 5294 b03d 0194 b83d ed57 843b
000003f0: 8b2f b33d 6968 d7bb 02f1 903d d83d 84bd
0.06593868 -0.059860572 -0.049881443 -0.02208316 -0.030954208 0.0022630931 0.12234138 0.023268085
-0.02139383 0.030897155 0.0413151 0.09147642 0.0006733644 0.107407235 0.09887854 0.13124995
0.045467068 0.09656386 0.06939627 0.1445104 0.043563418 -0.03788838 0.03647941 0.050873373
0.028016878 -0.013295401 0.025168844 -0.063620195 -0.01229798 0.0055314535 -0.047111724 -0.027618535
0.106587894 0.05021112 -0.00016677052 -0.010427091 -0.007774376 0.13721201 0.004295456 0.005990289
0.039668575 -0.038218 -0.025249848 0.045283265 0.09340438 -0.022598078 0.0050059906 -0.0022433528
0.094889045 0.07741886 0.09313822 0.033813253 0.011919673 -0.03578786 -0.0002543759 -0.053735547
0.1491033 0.0073807524 -3.2589088e-07 0.011544958 -0.017805612 0.077166796 -0.035049308 -0.055332065
-0.059797876 0.13309999 -0.01560276 0.007520356 0.097737506 0.042611867 0.063155614 0.0230081
0.08208216 0.054492224 -0.025964955 0.05537592 -0.05283148 0.13877457 -0.00087195676 0.04151776
0.07180177 -0.14215608 0.041980848 0.05275704 -0.044303022 0.04520418 -0.10128041 -0.025906265
0.09543727 -0.028408255 -0.10018193 0.07579536 0.068234645 0.06365498 0.018117303 0.0004261289
-0.058579806 -0.05388151 0.038693555 0.048154682 -0.037594415 -0.05378112 -0.023635866 0.03746453
-0.039521012 -0.07461951 0.048677437 0.068136685 -0.00084659643 -0.049853534 -0.1006393 -0.09958786
0.006362983 -0.06401657 -0.05381316 -0.1048144 -0.07197624 -0.09592312 -0.09011418 0.045533404
-0.037345402 -0.03578673 0.09890605 -0.019150134 0.042731047 0.03306037 0.010574846 0.06300485
0.0224612 -0.050527737 -0.12871145 -0.041658465 -0.016574474 -0.04036075 -0.040059738 -0.04682957
-0.010242628 0.05640056 0.062930286 -0.015435159 7.2685293e-07 0.005358688 -0.02599827 -0.0022325888
-0.033859085 0.0108961295 -0.09112522 -0.09589431 -0.076895565 -0.008281957 0.04973938 -0.043736193
0.10244026 0.039873924 -0.00036555962 -3.7335087e-06 0.024865512 0.03665542 0.020957364 0.037850775
-0.0853395 -0.014896665 0.103523865 0.077720225 0.025743082 0.06183349 0.08067734 0.021576906
-0.08365154 0.033720206 -0.0498168 0.015157345 0.10840736 0.038810454 0.038688265 0.07136311
0.06806496 -0.07417685 -0.031395834 -0.013119914 0.020700421 0.07743632 0.06424636 0.06311339
0.007965571 0.09636988 0.063836336 0.07404427 3.2933022e-07 -0.006718537 0.022102954 -0.06621206
0.0022309432 -0.037957877 -0.00017606505 0.047282822 -0.06898839 -0.07249249 0.0009122603 0.05116659
0.05407224 0.054301318 -0.05212397 -0.061760306 -0.064000614 0.0076742414 -0.011683219 0.0191621
0.042878594 0.098786294 0.09004369 -0.061419785 0.015107853 0.06233117 -0.047156315 0.045932498
0.114261195 -0.071160235 0.009658853 0.004923817 -0.021872025 -0.0772415 0.13277954 -0.021728871
-0.08657209 0.10518502 0.015663806 0.08139793 0.1200395 4.6506474e-07 -0.09203514 -0.00968847
0.07568797 -0.017334156 -0.040247135 -0.05918739 -0.012761683 0.058042005 -0.016711466 0.01027538
0.06628957 0.11388246 -0.0835179 -0.06199047 -0.0017503296 0.043315295 0.10369147 0.09054698
0.0010677017 0.0862204 0.090126045 0.004038802 0.087493025 -0.006573726 0.070772186 -0.06457108

feat.bias f4 [30]
00000000: d528 243d cb35 883c 23d8 553d 8523 fa3d
00000010: 3ef3 953d 8f61 653d f228 ccbb 55c7 b5bd
00000020: e7da 0a3a 94c0 f9bc d82c f93d bd0a 9cbd
00000030: bdeb 363d 8f1e 06be e60f acbd 20a7 dbbd
00000040: 8589 dfbd 611e babd f1ac df3d d903 fe3d
00000050: 01e1 dbbc a0c6 5d3d 5cc3 233c 5934 8a3d
00000060: 265b b23c 3517 c73d 44d2 a2bd 792b 1abc
00000070: 88b9 9c3c 8f30 ac3d
0.040078003 0.016627213 0.052208077 0.12213806 0.073217854 0.056001242 -0.006230467 -0.0887591
0.0005296901 -0.030487336 0.121667564 -0.07619236 0.04465841 -0.13097595 -0.0840147 -0.10725236
-0.10914902 -0.090878256 0.10921658 0.12403078 -0.026840689 0.0541445 0.009995308 0.06748266
0.021771979 0.09721223 -0.07950261 -0.009409779 0.019131437 0.08407699

edge.weight f4 [435, 80]
00000000: 3cc7 143d a4a9 0c3d 3cbc 253d b20a 843d
00000010: 54e7 913d ec81 673d e642 923d 3222 c53d
00000020: 422b d73d 4adc 993d 900a 883c 6067 95bd
00000030: 2ef8 e0bd 5cb4 8f3d d63d bfbd 9a2b ad3d
00000040: 7154 8ebd 908b 0cbd 8c16 d0bd 7c74 b53d
00000050: 6dab 8fbd 31e0 d8bd d550 bebd 78a8 7a3d
00000060: beaf ba3d 7059 0b3d 7cd8 d8bd 6ab5 b2bd
00000070: 06db db3d 2011 6a3c 10fe c0bc ec10 63bd
00000080: 64ce a33d 1c88 11bd ed07 7ebd a079 413c
00000090: 8075 f43b 54d5 b33d 006e 923c 6638 8bbd
000000a0: 7a35 a0bd c2cb 36bd c675 c63d 4a0d e13d
000000b0: 4e6c ab3d 9d6d 5fbd 80d1 1dbd c0f8 acbb
000000c0: f88b 513d 3ce2 653d 82be d23d c4d3 bbbc
000000d0: 79e5 a9bd 5479 b3bd 40e0 ac3a f054 0fbd
000000e0: 7061 f63c 400a 1c3d bd68 52bd 88f8 763d
000000f0: 2a0a aabd d0d8 ec3c 54d0 a1bc f0ec c63d
00000100: 803a 683d 0c31 c2bc 135c dbbd c8d1 ba3d
00000110: ced2 943d 987f 003d 902d 11bd 38dc 32bd
00000120: 5aaa cabd 2028 f73b 2466 84bd f022 2f3c
00000130: 4097 8bbb 806c 803c e081 333d c042 583b
00000140: f08c f13c 589a 733d d346 9fbd b875 433d
00000150: b0c7 9c3d 38e2 3f3c 8091 edbc e485 9ebc
00000160: e220 cc3d 2a35 87bd c875 bd3d 84d6 113d
00000170: 2086 2dbb 9821 413d 207c 813c 1a9f c93d
00000180: 006a eabb be9e a13d 4831 aebd e454 173d
00000190: 562f a2bd 3c9b b7bc 8839 87bd d046 da3d
000001a0: f851 37bd 2493 3f3d f4dd 013d 2884 983c
000001b0: 9ce0 903d 38f6 d9bc 4f27 c4bd ec60 bfbc
000001c0: 5c8c abbd a41a b5bc c616 c43d f476 b5bd
000001d0: 3800 0dbd 40ed 05bc cc41 d93d f734 abbd
000001e0: 9e2e 9bbd 5c42 9e3d 48de 82bd 8af6 b33d
000001f0: fd68 cdbd 90a0 cd3d 7078 fe3c 9495 973d
00000200: 8667 86bd be39 cd3d ee44 e2bd 8034 8fbc
00000210: 006f a53b e0d1 e2bb bca9 bfbc cbb3 a7bd
00000220: 10b7 013d 798d 5dbd e0b7 d73d 4a27 853d
00000230: b8db 7ebc 869b 85bd 4237 e1bd 08f1 9abd
00000240: 7a2b 44bd 0025 303d 00c2 ff3c 60f4 433b
00000250: 9643 57bd f62e 92bd 20c9 2bbd 4c09 ca3d
00000260: e0c0 7c3b e55b babd 184e db3d 9c0a 893d
00000270: 2cd3 b9bd 5738 cabd c664 b6bd a044 1fbb
00000280: 08b1 76bc 2039 05bb ceac 36bd 6a8d bb3d
00000290: a0aa 773d 74ca 133d 1c60 65bd 6ffd c4bd
000002a0: 463d b9bd d8e2 0f3c f43b 433d c78b 6abd
000002b0: f2ce 1fbd 6be1 e3bd a419 843d 0ee1 cc3d
000002c0: 6027 06bc 3cce 613d 80cb 353b 80ef 9f3d
000002d0: d8e2 703d f4c2 1a3d 00a5 bebb 807a 0f3d
000002e0: b237 a53d e670 873d b87c 5ebd c0f8 973c
000002f0: 3859 8b3d 9ed1 c4bd 542a 4c3d e68c dd3d
00000300: 7024 c6bb a0c7 30bd 9015 81bd 9af4 6ebd
00000310: 4089 cb3c c8da a6bd 1b4d 7dbd 3833 c83d
00000320: ec92 91bd c6e9 833d 8c0c 94bc 2888 dd3d
00000330: 3029 66bc 8434 743d c033 8d3c 4c3d b93d
00000340: 62ea 48bd ca07 e0bd 02cd 6dbd beb1 893d
00000350: d0a1 3f3c 6010 03bc a419 763d 9d73 d0bd
00000360: 3412 523d 60a5 2d3d 585a 413d 2c24 d63d
00000370: 8062 c03d 40b6 0bbc 080e 5a3d 2a00 dbbd
00000380: c690 7ebd 301b c23c 8ed7 8bbd b805 873c
00000390: f82a cdbc 187c 203d 3604 903d e05c e23c
000003a0: f48d 41bd b6e1 bf3d 482f fabc e80e 2bbd
000003b0: 425e 70bd 00e3 7e3d 3284 3ebd ac1f 0e3d
000003c0: 6890 36bc 4809 d53d 3489 7f3d b2f2 3fbd
000003d0: fa58 d63d 3460 8d3d f880 fe3c 1178 bdbd
000003e0: 3e11 a9bd 613f c6bd b378 bfbd 6e50 d83d
000003f0: c8ee 88bd b877 bb3d 48c7 d33c b07b aa3c
0.036322817 0.03434147 0.040462717 0.064473525 0.071242005 0.056520388 0.07141666 0.09625663
0.10506298 0.0751272 0.0166066 -0.07295108 -0.109848365 0.07016823 -0.09337966 0.08455582
-0.069497 -0.034312785 -0.101605505 0.08860108 -0.07015119 -0.10589636 -0.09292761 0.06119582
0.091155514 0.03402084 -0.10588166 -0.08726008 0.10735135 0.0142863095 -0.023558646 -0.05543606
0.0799835 -0.035530195 -0.062019277 0.011808783 0.007460296 0.087809235 0.017874718 -0.067978665
-0.078227 -0.044627912 0.09690432 0.10988863 0.08370267 -0.054547895 -0.038529873 -0.0052786767
0.051158875 0.056123957 0.10290243 -0.022928126 -0.082957216 -0.08763376 0.001318939 -0.034993112
0.030075759 0.038095713 -0.051369417 0.06029561 -0.0830272 0.028911978 -0.019752659 0.09713161
0.056696415 -0.023705028 -0.10710921 0.09122044 0.0726677 0.031371683 -0.035443842 -0.04366705
-0.09895773 0.007542625 -0.06464794 0.010689482 -0.0042599738 0.015676737 0.04382503 0.003299877
0.02948615 0.059473366 -0.077771805 0.047719687 0.07655275 0.01171165 -0.029000044 -0.019350953
0.099672094 -0.06601937 0.092509806 0.03560497 -0.002647765 0.047151178 0.015806258 0.09844799
-0.0071537495 0.07891606 -0.085054934 0.036946192 -0.07919185 -0.022412889 -0.0660277 0.10658038
-0.044755906 0.046771184 0.03170581 0.018617705 0.07074091 -0.026606664 -0.0957781 -0.023361646
-0.08376381 -0.02210743 0.09574656 -0.08860579 -0.034424037 -0.008174241 0.10608253 -0.083597116
-0.07577251 0.07727501 -0.06390053 0.08787258 -0.100297906 0.100403905 0.031063288 0.07401577
-0.06562714 0.10020779 -0.110483035 -0.017481089 0.0050486326 -0.0069219917 -0.023396365 -0.0818859
0.031668723 -0.054089997 0.10533118 0.065016344 -0.015555315 -0.06523804 -0.10996868 -0.07565504
-0.047893025 0.043004036 0.031220436 0.0029900298 -0.05255469 -0.07137863 -0.041939855 0.098650545
0.003856711 -0.09099559 0.107082546 0.06691477 -0.09073481 -0.09874027 -0.0890594 -0.0024302378
-0.015056856 -0.0020328239 -0.044598393 0.09157832 0.060465455 0.036081746 -0.05599986 -0.09618651
-0.0904489 0.008782111 0.047664598 -0.05726221 -0.039015718 -0.111269794 0.06450203 0.10003863
-0.008188099 0.05512832 0.0027739704 0.07809353 0.058810085 0.037783578 -0.0058180094 0.035028934
0.08067264 0.066133305 -0.05431816 0.01855123 0.068041265 -0.09610294 0.049845055 0.1081789
-0.006046824 -0.043159127 -0.06302941 -0.05833874 0.02484572 -0.08147198 -0.06184111 0.09775394
-0.07108101 0.06441073 -0.018072389 0.10816985 -0.014047906 0.059620395 0.01723659 0.090448946
-0.04905165 -0.10938986 -0.05805684 0.06723355 0.011696294 -0.00799951 0.060083047 -0.101783015
0.05128689 0.042394042 0.0472053 0.10456118 0.093937874 -0.0085273385 0.053236037 -0.10693391
-0.062149785 0.023694605 -0.06828223 0.01648222 -0.025044903 0.039180845 0.07032053 0.027632177
-0.047254518 0.09369223 -0.030540124 -0.041762263 -0.05868364 0.062228203 -0.04651279 0.034698173
-0.011142828 0.10402161 0.062386706 -0.04686231 0.1046619 0.06903115 0.031067356 -0.092514165
-0.08255242 -0.09680057 -0.093491934 0.10562216 -0.06686169 0.09153694 0.02585186 0.020810932

edge.bias f4 [435]
00000000: 2714 a0bd 9142 7dbd 4098 70bb 60a7 d33d
00000010: 60ec 7b3c 889e bfbd 0aea 61bd c001 b23a
00000020: 5e0f 14bd 4098 ccba 938e 7abd 0c39 1c3d
00000030: bcc8 8f3d 1a3d 22bd 082b e23d 7404 8a3d
00000040: 0060 98b9 78d2 b8bd 1e1a d5bd c0c2 6ebc
00000050: a452 7f3d ac76 eebc 44bf 4a3d ec05 d43d
00000060: 1a31 c53d 20c0 673d ce6c b4bd 28e8 013c
00000070: 64b5 cc3d 8ce7 b5bd 8061 a63d 0bc5 b9bd
00000080: 90d3 a23c e29e bd3d f0bc c5bc 567b 57bd
00000090: 6856 873d eeac 80bd c6d6 db3d c42f c93d
000000a0: f605 a03d 48c4 d23d fce5 ecbc 848d 603d
000000b0: e0bb 20bb b013 b1bc 8044 a4bc 700f cabc
000000c0: 2237 cb3d 1f39 7fbd 2059 2c3d e408 443d
000000d0: ac7a 833d 68c4 68bc 0e89 de3d 40b1 41bc
000000e0: e4f4 833d 080d 51bc c014 793c c480 24bd
000000f0: fa85 6abd 0014 873a 5415 533d 7a2d a63d
00000100: 05fc cebd a6f1 95bd 9cee 44bd 68fb c63c
00000110: b079 7dbd fecf 85bd 527d 833d 71cd dbbd
00000120: 9616 66bd ee76 2dbd 00cb 243d 2a5c bb3d
00000130: 3c9f 88bc c053 b5bb 6018 e83c 9897 073d
00000140: 0c29 9f3d 3086 f5bc 48eb 253d 3dfc a2bd
00000150: d539 66bd 2678 9abd cc38 dfbd c4b8 f9bc
00000160: 50f7 593d 64c3 a5bd 0a82 a83d 54e4 083d
00000170: d0eb c43d ccbe 083d 2829 db3d 8877 cabd
00000180: 201d 553b 64d9 83bc 3826 d1bd 0a78 12bd
00000190: a019 a8bc e035 e83b a0cd f63c 06f0 8abd
000001a0: 7ccb e2bd b8ca b43d 2eef cf3d f1ee 84bd
000001b0: e257 b43d a005 d73b b1b9 d6bd 74c9 5cbd
000001c0: d02d 593c 9878 c53c 0ca7 bebc b533 94bd
000001d0: b4be 9b3d 289a 073d e014 3fbb 604d e8bc
000001e0: 38fa 8b3d c4a1 0e3d b0a5 253d 72d6 07bd
000001f0: 4e0c 913d e25a 8a3d 482d b93c 4401 69bd
00000200: fc97 3b3d c3cf 76bd 7870 2a3d f798 b6bd
00000210: f043 ca3d 00ad 9e39 c64f 6ebd c85c 9a3d
00000220: 783e a73c 68e7 b7bd d831 0cbc 64b1 acbc
00000230: 9a40 c13d e6b2 9c3d a8e6 42bc ec04 c33d
00000240: 44e3 413d b8a8 d93d e8d0 ba3d 4e89 b4bd
00000250: 98f3 8b3c 8d1e c0bd 3a72 1abd c8ef 543d
00000260: 394b 62bd 38da 01bc 9a32 10bd a4d7 ce3d
00000270: f461 183d 38d5 bbbc 38e4 963d a8ef fe3c
00000280: 1a66 b63d 88b9 0d3d c242 adbd 64a6 903d
00000290: 366c 82bd 40eb adbb 5b00 89bd a806 27bc
000002a0: f6bd 00bd dc95 c63d e5bd 9fbd 2092 4bbc
000002b0: c0f2 3bbc fcaa dbbc 54d2 733d ce00 00bd
000002c0: d619 a6bd c648 bcbd 987d 39bc 0c83 653d
000002d0: a44e 343d aaf2 36bd 8082 143d 708f cebb
000002e0: 321b 3ebd 9e3c abbd 4031 25bc 2459 ae3d
000002f0: 8aca 26bd 483a 243d b07a 39bc 40c5 be3c
00000300: 3063 f2bc f047 9a3c 7858 e3bd 6c0f c03d
00000310: a86b 003d f831 ab3d 281e a03c 4a2c 46bd
00000320: 40d9 003c 7ecb db3d b261 b03d 9c9c b63d
00000330: 0cf2 92bc 1094 933c 5572 dabd a950 dfbd
00000340: 8e4e 9f3d 0e27 a33d f012 efbb 33d8 acbd
00000350: 10b5 ebbb e05c a03c 0ad7 3dbd 246b d4bd
00000360: 48c0 b03d 7436 913d 5626 1abd f547 97bd
00000370: 2054 9b3c 0076 973b 5a39 92bd 1259 bdbd
00000380: c0e2 94bd 2818 9b3d 46ad a0bd 7613 c4bd
00000390: 3da8 bcbd 904f 28bc a8e8 753d 840e ab3d
000003a0: 10dc 48bc e4be ccbc 41ce 8cbd 2cf7 8ebd
000003b0: 00d3 64bb 34aa 903d 20c4 4a3b c0e9 663c
000003c0: 1f9d a9bd f618 cfbd d87f 1cbc 30d8 85bb
000003d0: 30ee 703c fb3e 8abd de22 8d3d 60b3 ffbc
000003e0: 8796 88bd 706c dc3c c879 0e3d dc9b aa3d
000003f0: 5026 8c3c bc62 693d 901b 023d a84d f13c
-0.07816344 -0.06183106 -0.0036711842 0.103346586 0.01537618 -0.09356409 -0.055154838 0.0013580844
-0.036147468 -0.0015609339 -0.061171126 0.03814034 0.07020709 -0.039609052 0.11043364 0.067391306
-0.00029063225 -0.09024519 -0.10405372 -0.014572799 0.06233467 -0.029109322 0.04949881 0.10352692
0.09628506 0.05657971 -0.08809815 0.0079288855 0.09995535 -0.08882055 0.081240654 -0.09070786
0.019876271 0.0925882 -0.024137944 -0.052607857 0.066082776 -0.06282984 0.10734324 0.09823564
0.07813637 0.10291344 -0.028918259 0.05482246 -0.0024526045 -0.021615833 -0.020052195 -0.024665564
0.09922625 -0.062310334 0.042077184 0.04786004 0.06419882 -0.014206983 0.10865985 -0.011822045
0.064431936 -0.012759455 0.015202701 -0.040161863 -0.057256676 0.0010305643 0.051534012 0.08114143
-0.10106663 -0.073214814 -0.048079118 0.024289802 -0.06188363 -0.06533812 0.06420387 -0.10732544
-0.056173883 -0.04234975 0.04023266 0.09148438 -0.016677491 -0.0055336654 0.028331935 0.033103555
0.07771501 -0.029971212 0.040507585 -0.07958267 -0.056207497 -0.07542448 -0.10899505 -0.03048361
0.05321437 -0.080939084 0.08227928 0.033420876 0.0961529 0.033385083 0.10701209 -0.0988608
0.003251858 -0.01609487 -0.10212368 -0.03575901 -0.020520031 0.0070865005 0.030127347 -0.06784062
-0.11073968 0.08827728 0.10153042 -0.06490887 0.08805825 0.00656195 -0.104846366 -0.05390306
0.013255551 0.024105355 -0.023273014 -0.07236425 0.07604733 0.033106 -0.002915673 -0.028357208
0.06834835 0.03482224 0.040441215 -0.033163495 0.07082425 0.06755616 0.0226046 -0.056885973
0.04579924 -0.06025673 0.041611165 -0.089158945 0.09876239 0.00030265003 -0.058181547 0.07537228
0.02041553 -0.08979684 -0.008556806 -0.02108068 0.0943615 0.0765131 -0.011895813 0.09522423
0.047335878 0.10627884 0.09121877 -0.08815251 0.017083928 -0.09380827 -0.03770659 0.051986486
-0.05524752 -0.007925563 -0.035204507 0.10099724 0.03720279 -0.022928819 0.07367748 0.031120136
0.08906193 0.034600765 -0.08459999 0.070629865 -0.06368296 -0.005307585 -0.06689521 -0.010194458
-0.03143116 0.09696552 -0.077998914 -0.012424976 -0.01147145 -0.02681493 0.059526756 -0.031250767
-0.081103966 -0.09193568 -0.011321448 0.05603318 0.04402031 -0.044665016 0.036257267 -0.00630372
-0.046412654 -0.08361171 -0.010082543 0.08513096 -0.0407205 0.040094644 -0.011320755 0.023287416
-0.029588312 0.01883313 -0.111008584 0.093779415 0.03135267 0.0835914 0.01954563 -0.04838208
0.007864296 0.107321724 0.08612384 0.089165896 -0.017937683 0.018014938 -0.10666338 -0.109040566
0.07778655 0.079664335 -0.0072959587 -0.08439674 -0.007193215 0.019575536 -0.046347655 -0.10371998
0.08630425 0.07090464 -0.037634216 -0.073867716 0.018961012 0.004622221 -0.07139845 -0.092455044
-0.07269812 0.07572967 -0.07845549 -0.095740244 -0.092117764 -0.010272875 0.06003633 0.08352378
-0.012259498 -0.024993367 -0.06875277 -0.06980738 -0.0034915805 0.07063714 0.0030939654 0.014093816
-0.082819216 -0.10112183 -0.009551965 -0.0040846094 0.014705226 -0.06750294 0.06891416 -0.031213462
-0.06669336 0.026907176 0.03478411 0.08330509 0.017108113 0.056978926 0.031764567 0.029455975
